best_model.pt (torch, 132587 bytes, 15 tensors)

shared_layers.0.weight f4 [64, 397]
000000 65 25 b4 3a 94 d2 58 3c d3 8f 1f bb 7e 5a 18 bb
       0.0013744055 0.0132337995 -0.00243472 -0.0023247297
000010 f6 fa be 3b bd 9b 1b 3b 97 6a 2d bc 5b 54 39 3c
       0.0058282567 0.002374395 -0.010584495 0.011311616
000020 4a 58 b6 b8 76 6c 0b 3c 01 25 7a 3c 43 59 b1 3a
       -8.6948814e-05 0.008509746 0.0152676115 0.001353063
000030 2f a4 b3 bb a1 f1 a6 bb 97 3f 01 bc 7b c2 43 3b
       -0.0054822187 -0.0050947224 -0.007888696 0.0029870558
000040 4c 87 08 3c c7 36 76 3c 8e 90 98 bc 19 fc 10 3b
       0.008333039 0.015027708 -0.018623617 0.0022122918
000050 c8 7f 6d bb fc 51 0d 3c ce ff ed 3a d7 8c ea 3a
       -0.0036239494 0.008625504 0.0018157901 0.0017894757
000060 45 f8 72 bb 52 01 44 bc c8 85 c6 bb 4e e2 e1 3b
       -0.003707425 -0.011963205 -0.0060584284 0.0068934327
000070 31 7b e1 bb 2d e5 d5 bb 2b 47 bf 3b 83 ff 30 3b
       -0.0068811406 -0.006527564 0.0058373413 0.0027007766
000080 3a f7 19 3c db 10 9d 3b 56 fd 9d bb 30 ca 60 3c
       0.009397322 0.004793269 -0.0048214598 0.01372008
000090 a0 87 d0 3b 2d 0e 96 3a 55 f7 89 3b 1d 49 01 bc
       0.006363824 0.0011448317 0.0042103925 -0.007890967
0000a0 c0 75 82 3c 00 91 af 3a 13 58 19 bc 21 c1 41 3c
       0.015925288 0.0013394654 -0.009359377 0.011825831
0000b0 e4 6b a8 3b a6 32 76 bb cf 49 59 3a 20 2b 02 bc
       0.0051398147 -0.003756681 0.00082888914 -0.007944852
0000c0 3c 28 97 bc 55 ad 2c bc f9 3f d1 3b 9a 62 bd 3b
       -0.018451802 -0.010539372 0.0063858 0.0057795765
0000d0 81 5a 0e 3c a4 74 93 3b f3 b0 88 bb b8 20 3b bc
       0.00868857 0.0044999886 -0.0041714846 -0.011421375
0000e0 bd a3 a1 bb d5 8c a0 bb 72 d4 c4 bb 8e 9c 28 3c
       -0.004932849 -0.004899601 -0.006006771 0.010291232
0000f0 b3 17 05 bb 02 af 8d bb 92 64 10 3b de 9c b3 bb
       -0.0020308315 -0.004323841 0.00220326 -0.0054813465
000100 1e ca 95 bb de b8 35 bc 0b 2b 39 bc 16 51 6e ba
       -0.0045712134 -0.011091439 -0.011301766 -0.0009091062
000110 38 d8 8c 3b 1b 10 ac bb c1 fd db 3b 40 45 04 bb
       0.004298236 -0.0052509434 0.0067135994 -0.0020182878
000120 7f d0 d5 bb f3 2e e7 ba 70 58 4d bb 32 a6 1f 3b
       -0.006525099 -0.0017637893 -0.003133323 0.0024360535
000130 7e 0d 48 bc 03 91 36 3c 9d 42 24 bc ad b2 45 3c
       -0.012210248 0.011142972 -0.0100256475 0.012066525
000140 07 a0 cd bb 13 42 96 bb 23 d4 93 3b 52 fe 36 3c
       -0.0062751803 -0.0045855134 0.0045113727 0.011169033
000150 2e 9e ae ba 4a a2 23 3c c5 2f 18 3c 10 65 11 bc
       -0.0013322288 0.009987423 0.009288733 -0.008874193
000160 51 e4 72 3a a5 51 aa 3b 59 b7 71 bb 86 a1 07 bc
       0.0009265589 0.005197721 -0.0036882965 -0.008278256
000170 6a d8 7f 3b 42 1c 5a 39 b6 54 1b 3c 67 e8 09 bc
       0.0039038905 0.00020800627 0.009480646 -0.008417225
000180 81 96 2f 3b a4 dc 09 bb 58 c8 42 bc ff e5 47 3a
       0.0026792588 -0.0021036053 -0.011888586 0.00076255196
000190 36 8e 07 3c d7 c3 1e bb 7f 8c 0b bb ea 51 ba 3b
       0.008273652 -0.0024225616 -0.002129346 0.0056860344
0001a0 22 3c 5e bb 4a a6 10 3c 38 65 ee 3b 27 68 16 3a
       -0.0033910354 0.008828709 0.00727525 0.0005737566
0001b0 22 2b 94 bb aa 62 27 3c b9 29 3e 3c 06 03 32 bc
       -0.0045217434 0.010216394 0.011606627 -0.010864979
0001c0 6b 4c 38 3b fb 10 2f bc b6 83 2f bc bc 9d 3b 3b
       0.002812172 -0.010685201 -0.010712555 0.0028627953
0001d0 ae a7 ba 3b 9f bf eb 3b 8d f4 6d 3b 1c 3f 17 3c
       0.0056962585 0.007194474 0.0036309094 0.009231355
0001e0 b6 8b 38 bc e1 43 24 3c dc 2c 69 3c a9 b8 b4 3b
       -0.011263778 0.010025949 0.014231887 0.0055151773
0001f0 a2 ec b4 3b e5 1d bb 3b f7 50 ce 3b ec e6 1b 3c
       0.005521373 0.005710351 0.006296273 0.009515505
000200 f0 b1 29 3b e3 03 c0 3b eb 0d a7 bb e8 5e 06 3b
       0.0025893413 0.0058598383 -0.0050980947 0.0020503346
000210 36 4f 4b 3c b2 8e 30 bc 11 ca 09 bc d7 e1 07 bc
       0.012409022 -0.010776209 -0.008409993 -0.0082935905
000220 2a ca 71 3b 41 48 29 bc d2 95 41 3c 9b 2b b3 bb
       0.003689418 -0.010332168 0.011815505 -0.0054678447
000230 f4 25 9b ba 56 71 0a 3c 9d d7 07 3c 6e 3c fb bb
       -0.0011836872 0.008449873 0.008291152 -0.007667116
000240 8c b7 32 bc c3 0c 89 bb 62 2e c6 3a 3b 67 45 3c
       -0.010908019 -0.0041824295 0.0015120024 0.012048538
000250 da 5e a2 bb 47 fa f7 bb f3 77 a3 bb 0c 6e d9 ba
       -0.004955155 -0.007567677 -0.0049886643 -0.0016588583
000260 fe c7 2d 3b 77 4a 20 bb da dc 81 bb 12 c2 76 bb
       0.002651691 -0.0024458447 -0.003963095 -0.0037652296
000270 02 5d 24 bc 2e 3b bc bb 40 84 2b 3c d7 0d b8 3b
       -0.01003194 -0.0057443595 0.010468543 0.005616884
000280 88 78 f3 bb 27 e7 80 3b cb d9 fa 3b 03 33 ce 39
       -0.00743014 0.0039338055 0.0076553575 0.00039329389
000290 0a 0f 40 3b 56 0c 86 bb 0d 5b 36 3c 0e 06 dd bb
       0.002930584 -0.004090826 0.011130107 -0.0067451065
0002a0 00 0a 31 bc 8e b7 be 3b c5 86 23 bc 53 c3 2c bc
       -0.010805607 0.0058202213 -0.009980862 -0.010544616
0002b0 6d 73 c0 bb 41 43 28 bb 22 e1 f1 3b bb 06 10 3c
       -0.005873135 -0.0025674852 0.0073815743 0.008790667
0002c0 af 21 32 3c ae 08 3e bc 7f 6a 26 bb 27 92 6f 3b
       0.010872289 -0.011598749 -0.0025393066 0.003655562
0002d0 cb c0 51 bb 9d 64 dd 3b b4 12 8b bb f7 fe 6e 3b
       -0.0032005783 0.006756379 -0.004244173 0.003646789
0002e0 18 de 8d ba b2 9c 2f 3c 26 db 31 bc df 83 06 3c
       -0.0010823635 0.010718511 -0.010855472 0.008210151
0002f0 f5 53 fc 3b a2 25 3d bc 54 2f e4 bb a6 ff 33 3c
       0.007700438 -0.011544617 -0.0069636498 0.010986244
000300 d1 a5 8a 3b eb 15 2b 3c 39 29 1a bc ce c9 07 bc
       0.0042311926 0.010442237 -0.009409242 -0.00828786
000310 df ab 83 bb d0 3c 10 3b a6 c3 10 3c 65 ed 1f bb
       -0.0040182914 0.0022008903 0.008835709 -0.0024402973
000320 1d 1e 94 bb a5 40 59 ba 4a 42 0e bc ab 98 10 3c
       -0.0045201913 -0.0008287526 -0.008682797 0.008825461
000330 2b d4 2f 3c 2b 07 7a bb 3e 63 c4 bb cf 95 2e ba
       0.010731737 -0.0038151245 -0.005993276 -0.00066598965
000340 3e 46 19 3c c5 0e 60 bb f5 33 0a bb b6 15 32 bc
       0.009355126 -0.003418849 -0.0021088098 -0.010869434
000350 5b 5d 7f 3a 1c d5 71 bc ce c6 03 3c eb 5b 69 3b
       0.0009741389 -0.014760282 0.008043004 0.0035607766
000360 91 4f c9 ba ce 76 25 3b 0f 39 40 3c 9d 55 1b 3b
       -0.0015358796 0.0025247815 0.011732354 0.0023702153
000370 86 7a d6 3b 4e 1f 25 3c 88 77 88 ba aa 12 9e 3a
       0.0065453677 0.010078264 -0.00104116 0.0012060006
000380 7b b2 1e 3b 9e 6c d7 3a 1a db 50 bc 06 dd 10 bc
       0.002421527 0.0016435569 -0.01274755 -0.008841759
000390 e4 0b 71 3c 59 6d 40 3b 72 24 b7 3b 73 16 b8 3a
       0.014712308 0.0029362051 0.0055890614 0.0014044776
0003a0 bd ae 9e bb 11 95 11 bc 9e 89 ea 3b f2 99 80 3c
       -0.004842608 -0.008885638 0.0071575185 0.015698407
0003b0 15 09 4e 3b 31 1c 23 3c 80 93 d3 bb 0a d4 8a 3a
       0.0031438519 0.009955452 -0.0064567924 0.0010591757
0003c0 c3 cc db ba bd 63 f5 bb fc 9d 10 bc fe 6c 82 bc
       -0.0016769398 -0.0074886964 -0.008826729 -0.015921112
0003d0 7e a3 57 3b 2b 95 d4 3b ec 4b 83 3b 89 06 73 bb
       0.0032903845 0.006487509 0.0040068533 -0.0037082753
0003e0 4b c6 ae bb 89 14 0d 3c e7 df b1 3b 85 ef d5 39
       -0.005333697 0.008610853 0.0054283026 0.00040804982
0003f0 a0 31 ef bb 52 b1 02 3b 59 2a 2c 3c 5e 84 3e bc
       -0.007299617 0.0019942117 0.010508143 -0.0116282385

shared_layers.0.bias f4 [64]
000000 23 fc cb bb 10 27 7d 3c 5d 9c 81 bc 6b 3e 3d bc
       -0.0062251254 0.015451208 -0.01582163 -0.011550526
000010 56 94 58 3c a7 0e e3 ba 70 1d 19 bc c8 75 a9 bb
       0.01321896 -0.0017323092 -0.009345397 -0.0051715113
000020 96 0f 57 3c 96 bb f4 3b 75 66 ac ba d6 42 c6 3b
       0.013126275 0.007468651 -0.0013153093 0.006050448
000030 53 86 87 3b d1 98 d3 bb 5a 70 e3 3b b9 ce a9 3c
       0.0041358857 -0.006457426 0.0069408836 0.020728456
000040 fb af 8c bb 13 f4 e6 b9 c0 8e ca 3b 80 1e d4 3b
       -0.0042934394 -0.00044050868 0.006181568 0.0064733624
000050 22 a1 04 3d c0 7d f2 ba f3 17 a8 3c 9d 47 40 3c
       0.03238023 -0.0018500611 0.020519232 0.011735824
000060 a5 de 54 3d 42 72 84 3b 0c db 33 3a 5b 2d 25 3b
       0.051970143 0.004041941 0.00068609486 0.0025204036
000070 56 7d b2 3c d8 ec 59 bc 0b 9d 37 bb 0f dc 92 3c
       0.02178828 -0.013301097 -0.002801719 0.017927198
000080 f6 0b c5 bb d9 d9 08 3c 27 0f b4 bb c8 9d fb bb
       -0.0060133887 0.00835272 -0.0054949704 -0.007678721
000090 c2 b7 9f 3c 5f a1 a0 3b 7d 91 11 3d 7f 30 5b 3c
       0.019496802 0.0049020494 0.03553914 0.013378262
0000a0 a1 4c 1c 3c 51 d0 83 3b 3f 54 9e bb 4b 85 5a 3d
       0.009539754 0.004022636 -0.0048318203 0.053349774
0000b0 60 b4 1e 3d 75 24 27 bc d4 93 6c 3b a1 13 93 3c
       0.038746238 -0.010201563 0.0036098855 0.017953696
0000c0 23 68 45 3a cd 2d 34 3b 9b b3 80 3c a0 a7 b5 3c
       0.0007530471 0.002749312 0.015710643 0.022174656
0000d0 48 ea b0 3b 42 ef fd 3c 69 6c b7 3b c3 68 0a bc
       0.0053990223 0.030997876 0.0055976403 -0.008447829
0000e0 b3 4d ed 3c 4f f0 19 3c 08 d7 86 3b f6 18 28 bb
       0.028967714 0.009395673 0.004114989 -0.0025649644
0000f0 a9 bb 6a 39 88 58 0c 3c bc 9c f5 bb 4d 7b dd bb
       0.00022385888 0.008566029 -0.007495491 -0.0067590834

shared_layers.2.weight f4 [32, 64]
000000 b4 4b 9f bc d8 45 82 3c d7 b8 26 bd 09 34 c8 bc
       -0.019445278 0.015902445 -0.04070362 -0.024438875
000010 c0 d0 af bc 9f eb 39 3c 5e 89 5e bc e9 b6 82 bb
       -0.021461844 0.01134768 -0.013582556 -0.0039890897
000020 39 74 64 bb 07 ec 30 bd c8 10 1c bd ea 9e 62 3d
       -0.0034859313 -0.043193843 -0.03810194 0.055327334
000030 b3 55 4e bd 51 a4 85 bd 7d 24 19 3b 01 d3 71 3d
       -0.050374698 -0.065254815 0.0023367696 0.05903912
000040 5b 5c ce 3c 46 06 fc 3c d7 4d 64 3d c0 c2 28 3c
       0.025190523 0.03076471 0.055738296 0.010300338
000050 27 c6 66 3d 4e ee 0f 3d c6 4f a3 3a 3d 91 97 bc
       0.056341317 0.035139374 0.0012459687 -0.018501872
000060 b9 1c b6 3d ef 53 39 3d d0 fc 0f bd a1 2c b9 bd
       0.08892197 0.04524606 -0.03515321 -0.090417154
000070 3b 98 8e 3c 33 1f 5a bd 4f 54 52 3c c9 2a 43 bd
       0.017406574 -0.05325241 0.012837484 -0.047648225
000080 1a 92 3d 3c 9a 1c 75 3c 56 fa a1 bc c8 8d d3 3c
       0.011570478 0.014960432 -0.01977269 0.025824443
000090 b9 a8 8b 3d 89 54 e4 3b 86 d3 b0 3c f5 33 23 3d
       0.06819291 0.006968085 0.021585237 0.039844472
0000a0 ac 60 cd 3b cf 95 55 bd 94 9e 15 bd 64 94 21 3d
       0.0062676277 -0.05214482 -0.036528185 0.039448157
0000b0 5a a6 59 3d a1 35 63 3d 6e 17 68 bd f2 cc eb b9
       0.05313716 0.055471066 -0.05666297 -0.0004497539
0000c0 dc 59 25 bd 79 3c 50 bc 65 0c 3d 3d bf 7c bf bb
       -0.0403689 -0.01270973 0.0461544 -0.0058437283
0000d0 28 dc d7 bc 76 04 07 3d 24 a6 bc bb dd 8b 75 bc
       -0.026350096 0.03296324 -0.00575711 -0.014986959
0000e0 f0 89 82 3d ba 34 6d 3d 87 b4 3e bd 38 be b6 3c
       0.06373966 0.057911612 -0.046558883 0.0223075
0000f0 a5 5c 4b bd a7 b9 80 3d b2 91 09 3b 4e d0 45 bc
       -0.0496489 0.062854104 0.0020991382 -0.0120735895
000100 2c 44 c6 bc 8d f5 6c 3c 7e aa 1f bd 5c 81 85 bc
       -0.024202429 0.014462841 -0.038980953 -0.016297035
000110 4a be b1 3c f9 27 9d bc 67 a9 85 bc 4b db a8 bc
       0.021697182 -0.0191841 -0.016316129 -0.02061238
000120 f1 42 a9 3c 3b 8c 88 bc f6 ee 67 bc 94 eb f9 bb
       0.020661803 -0.01666843 -0.014156094 -0.00762696
000130 a8 91 26 3a 38 d1 12 3c 88 2c 96 3c 6b fc 1b bc
       0.0006354102 0.008961014 0.018331781 -0.00952063
000140 49 31 a2 3c 01 c9 44 3c a8 ff a8 3c d3 cc 22 3b
       0.019798892 0.012010814 0.020629719 0.0024841323
000150 75 65 99 3c 0a 61 9c 3c ab 70 9e ba 84 bd 90 bc
       0.018725136 0.01908924 -0.0012088021 -0.017668493
000160 b3 de 47 3d c3 5b 27 3c 0e d7 39 ba 47 3e 3b bd
       0.048796367 0.010214749 -0.00070892356 -0.04571369
000170 2c a4 91 bb ed 84 02 bc f0 5a 87 39 02 12 8b bb
       -0.0044446196 -0.007966262 0.0002581696 -0.00424409
000180 7e ab 11 3d c5 c3 00 bc 35 90 88 3a 90 20 03 3d
       0.03556394 -0.007859175 0.0010418954 0.032013476
000190 60 d7 1d 3b 47 99 45 bc b9 40 a7 3c ad 06 7a 3c
       0.0024084672 -0.01206047 0.020416604 0.015260381
0001a0 e8 e2 d8 3c 7c 7e c2 bc f6 5c 60 3c 31 4e 23 3c
       0.026475385 -0.023741953 0.013694039 0.009967373
0001b0 1c ae 9e 3a 67 8a 31 3d b8 3f 8d 3c 78 b0 1c 3a
       0.0012106332 0.04334488 0.017242298 0.00059772236
0001c0 0a a1 c1 bc d2 46 b4 bc 01 da 07 3c db b6 17 3a
       -0.02363636 -0.022006426 0.008291722 0.00057874405
0001d0 ff 2c 98 bc fd fb 76 3b 53 41 42 bc f3 4d f0 39
       -0.018576143 0.0037686818 -0.011856395 0.00045834444
0001e0 e4 31 24 3d 66 2b ff 3c e6 06 82 3c 8a b4 08 3c
       0.040086642 0.031148624 0.01587243 0.008343825
0001f0 5b fe cf 38 c1 b5 12 3d 6c 47 76 bc e1 98 94 bc
       9.9179066e-05 0.035817865 -0.015031677 -0.018139305
000200 85 55 9d ba 3f 1f 00 bc 7a 70 6b 3c 49 4f 80 3c
       -0.0012003636 -0.00781995 0.014370078 0.015662806
000210 a3 cd 5b bc 72 9d 2b bb 32 c4 3e bc d6 09 a2 bb
       -0.013415727 -0.0026186374 -0.011643456 -0.00494502
000220 8c 54 c7 3c 1a 39 d7 3b 8b 5d c3 3c 82 26 c5 3c
       0.024332307 0.0065680863 0.023848316 0.024066214
000230 68 ed 0a bc 6c 8f d7 bc 75 3e 86 bb a6 f0 b0 bc
       -0.008479454 -0.026313506 -0.004096801 -0.021599125
000240 16 49 11 3a 18 1e e9 bc 4d 6d 1f 3c 6a cb 3b 3c
       0.00055422017 -0.028456733 0.009730649 0.011462072
000250 d6 7d 4d ba fd f7 0b bc 5c af a2 bc 03 3d 2b 3c
       -0.00078388804 -0.008543012 -0.019859008 0.010451558
000260 69 de 83 3c 09 0f 8c 3c c3 c5 d5 3c d5 a7 ac 3c
       0.016097264 0.017097013 0.026095277 0.021076122
000270 58 8f d2 bc 58 bf a4 bc 7b 12 eb bc 4b ea d2 3a
       -0.025703117 -0.020110771 -0.028695336 0.0016091553
000280 f9 1f 7c 3c da 7b ef bc 69 b5 b8 bc 00 e8 55 bc
       0.015388482 -0.029233862 -0.02254744 -0.013055801
000290 1a ee ea ba 7c 00 1c 3c 75 43 dc bc 95 e2 e7 bb
       -0.0017923743 0.0095216 -0.026887635 -0.007076571
0002a0 83 44 85 bc 7b 4c 6f bc 5c 19 73 3c 16 d1 a0 bc
       -0.01626802 -0.014605637 0.014837589 -0.01963095
0002b0 5c 59 e8 bb 60 7f 83 3c 1f 90 80 bc 3f 09 0f 3c
       -0.0070907306 0.016051948 -0.015693722 0.008730232
0002c0 05 02 58 3b 6a 4b 5d bc 3b 9b 1b 3c c2 a8 b3 3c
       0.0032960188 -0.01350675 0.009497459 0.021931056
0002d0 70 fd 46 bc df dc 77 3c 11 24 6a 3c 2f f4 3d bc
       -0.012145385 0.015128343 0.014290825 -0.011593862
0002e0 87 89 a7 3c 1c 51 67 bc f6 25 33 bc c8 d5 67 bb
       0.02045132 -0.014118459 -0.010934344 -0.0035375226
0002f0 fd df d3 3c 7b fd 99 3c d8 81 e2 bc fc 57 d8 3c
       0.025863642 0.018797627 -0.027649805 0.026409142
000300 09 37 a3 3c 8d 65 21 3c 8c 40 87 bc 8f 62 ba bc
       0.019923704 0.009850872 -0.01651027 -0.022752075
000310 8f 3d 44 bc 5a 23 73 ba ec 2b be 3c 3f e7 0f bc
       -0.011977567 -0.0009274982 0.023214303 -0.008783161
000320 f4 a2 d1 3c 2f 02 b1 3c 65 26 ad bc 7a ea 5d bc
       0.025590397 0.021607487 -0.021136472 -0.013544673
000330 7f af 27 bc b2 d4 82 3b 0f dc 2e 3c 66 1d bb 3c
       -0.010234713 0.0039926404 0.010672583 0.022841167
000340 35 59 d6 bb 92 2d 9c 3c 03 cf 1a 3c cd b2 9d bb
       -0.006541396 0.019064698 0.0094487695 -0.0048125745
000350 b2 53 73 bb 08 35 94 bc e7 ec a7 bb ac ac 92 bc
       -0.0037128744 -0.018091694 -0.0051246765 -0.017904602
000360 f3 0c b2 3c 56 17 8f 3b ff 2d e7 bb 31 53 a7 3c
       0.02173469 0.0043667955 -0.0070550437 0.020425411
000370 9a f0 99 bc 89 43 33 bc 3c c1 6f bc 61 73 ab bc
       -0.018791486 -0.010941395 -0.014633473 -0.02092904
000380 68 20 96 bc 1b ac 4d bb ed 2d 42 bb ce 25 aa 3b
       -0.018326 -0.00313831 -0.0029629425 0.005192495
000390 f3 e3 79 bb f1 af 22 bc 8c 73 4e bb 6f 37 cc bc
       -0.0038130253 -0.009929643 -0.0031501977 -0.024928777
0003a0 38 c7 3f bc af f4 74 3c 34 61 cb 3c 41 94 d8 bc
       -0.011705212 0.014950915 0.024826623 -0.02643788
0003b0 d9 9c e1 bc 38 77 8c bc 06 9a d4 bc 7b e0 39 bc
       -0.027540611 -0.017146692 -0.02595235 -0.011345024
0003c0 96 be 3d 37 f1 c8 79 3b f7 75 eb 3c dd fe c2 bc
       1.1309652e-05 0.0038114155 0.028742773 -0.023803169
0003d0 06 3d b9 bb bf 18 d1 bc 1c 29 e7 bb cf 58 72 3c
       -0.0056530265 -0.025524495 -0.007054461 0.014791681
0003e0 1b b0 e8 bc 6e 07 f2 3a 5e 6f d6 3c 29 c7 c8 3c
       -0.028404286 0.0018465349 0.02617615 0.02450903
0003f0 76 f9 2e 3c 3a 30 61 bc ac b5 c3 3c 77 1f 8a 3c
       0.010679593 -0.013744408 0.023890339 0.016860707

shared_layers.2.bias f4 [32]
000000 94 ff bd 3c 79 04 71 3c 68 82 69 3c 26 c8 c8 3c
       0.023193158 0.014710539 0.014252283 0.0245095
000010 e2 aa 82 3a f5 b6 b8 bc 41 2c 05 39 ad 2d 7b 3d
       0.000996914 -0.022548178 0.00012700354 0.061322857
000020 c8 72 97 3c 71 30 42 3d 82 a2 85 3c 00 d2 6e 3d
       0.01848735 0.04740948 0.016312841 0.05830574
000030 fd 3a bd 3b 1d 38 02 3c 87 7c bf bb e2 b3 35 bc
       0.005774854 0.007947949 -0.0058437022 -0.011090251
000040 cf b8 6a 3c 3a 40 5e 3c 16 5d 0f 3d 43 3d 08 bc
       0.014326288 0.0135651175 0.035000883 -0.008315387
000050 32 26 ae 3c 58 11 50 3d 86 d9 09 bc d3 c6 da 3c
       0.021258447 0.05079779 -0.008413678 0.026706135
000060 06 58 23 bc 0e 54 9f 3d 20 88 15 3d 43 e2 27 bc
       -0.009969717 0.07779704 0.036506772 -0.010246816
000070 25 e9 41 bc 10 61 5c 3c 13 bb 96 3d f1 ff 05 3d
       -0.011835371 0.013450876 0.073599 0.032714788

hidden_layers.0.weight f4 [32, 32]
000000 aa 4d 6c bd 31 93 f4 bc af bb 27 bd d8 e0 85 bc
       -0.057691254 -0.029855343 -0.040950473 -0.016342565
000010 50 8e b1 3d 76 27 04 3b 74 bd ed 3c 94 8d 2f 3e
       0.08669722 0.0020165122 0.029021002 0.17143852
000020 61 08 2b bd df 81 ab bd a2 ee f8 3c 28 08 be bd
       -0.041756038 -0.0837438 0.030387226 -0.092788994
000030 a3 79 73 3d 06 94 00 3e fd c8 79 bc ea 55 08 3d
       0.059442174 0.12556466 -0.015245673 0.03328506
000040 b0 a5 80 3d da 10 8a bd 86 ff dc 3d e4 29 88 3c
       0.062816024 -0.067414954 0.10790925 0.016621538
000050 84 ed 1d bc 0d 9c a0 bd 57 1c 63 3b c0 08 16 bd
       -0.009639148 -0.07842264 0.0034654343 -0.03662944
000060 5d bc cf 3d 24 c5 22 be 11 90 01 be 66 9e c0 bc
       0.10143349 -0.15895516 -0.12652613 -0.02351303
000070 10 af ed bc 01 32 93 3d 01 05 61 be 61 98 cb 3d
       -0.02901414 0.07187272 -0.21974565 0.09941173
000080 69 56 94 bd 40 ce 52 3b 5a 53 15 bd 0b e4 8b bc
       -0.07243044 0.0032166392 -0.036456443 -0.017076513
000090 e1 ad 82 3d ae 85 20 bd 10 56 02 bd 44 35 ed 3d
       0.06380821 -0.039189987 -0.031820357 0.11582425
0000a0 ac 61 dc 3c c6 47 91 bd 30 67 4e 3d 94 af 53 bd
       0.026902042 -0.07093768 0.050391376 -0.051681116
0000b0 02 b8 cd bb d8 a6 ff 3c 0f 81 bd bc 1d fb ca 3c
       -0.006278039 0.031207487 -0.023132829 0.024777943
0000c0 6f 9c c6 3b 4b a1 9e bc 60 3d 96 3d 7f 50 80 3c
       0.006061129 -0.01936402 0.07335925 0.015663384
0000d0 c3 a6 9d bc d9 51 99 bd 04 1d 05 3d 27 4a 06 3b
       -0.019244557 -0.07486314 0.032498375 0.0020490976
0000e0 e2 50 16 3d f5 67 16 be 13 6b f4 bd 1d 99 8b bd
       0.03669823 -0.14688094 -0.11934485 -0.068163134
0000f0 0a 69 51 bc fb db cf 3c f6 f6 18 be 62 b4 98 3d
       -0.012781391 0.02537345 -0.14937958 0.0745628
000100 e9 24 a9 bc b6 ee 51 bd 6c c3 4c 3c 9a 81 97 3c
       -0.020647483 -0.051253043 0.012497764 0.018494416
000110 0d 60 68 3d 49 dc 29 bc f7 13 04 3d 16 dc 96 3d
       0.056732226 -0.0103674615 0.032245602 0.07366197
000120 82 91 e4 3a c0 ff bf bd ba 3d 91 3c ba 82 bd bd
       0.0017438384 -0.09374952 0.017729629 -0.0925345
000130 42 a3 1e 3d 1a 37 46 3d cd 57 15 bd 5f 0e 11 3d
       0.038729914 0.048392393 -0.036460686 0.035414096
000140 44 34 b3 3c 2b d0 d0 bc e3 0f 88 3d a7 6a 29 3d
       0.021875508 -0.025489887 0.06643655 0.041361477
000150 80 82 97 3c e4 02 9e bd 8c 58 75 3c 80 5f 5d 3a
       0.018494844 -0.07715395 0.0149747245 0.00084447116
000160 ac 9a 80 3d db 04 10 be 52 ae c7 bd 39 d9 33 bd
       0.06279501 -0.14064352 -0.09750046 -0.04390833
000170 6e fd 05 3d fb 37 85 3d 3c 2f 08 be 4c 9f 8b 3d
       0.032712393 0.06504818 -0.13299268 0.06817493
000180 43 84 7e bd 07 a8 2c bd 4a 29 c5 3c 74 7a d0 bb
       -0.062137853 -0.04215243 0.02406754 -0.006362254
000190 1b c1 f9 3c 73 fb dc 3c d9 86 1d 3d 61 82 c5 3d
       0.030487588 0.02697537 0.03845868 0.096440084
0001a0 1f 46 66 bb 9f ed fe bc 5e ef a9 3c ef 64 97 bd
       -0.003513701 -0.031119166 0.020744022 -0.073922984
0001b0 4d 9b 18 3d dc 6c a9 3d ab 50 26 3c d5 4a 3b 3c
       0.03725748 0.082727164 0.010151069 0.011431416
0001c0 8b e0 96 3c c1 22 ba ba c7 17 96 3d 8a 7a 7f 3c
       0.018417617 -0.0014201031 0.07328754 0.01559318
0001d0 08 34 1e 3d 76 a8 9f bb cf e0 ad bc 78 83 a7 bc
       0.03862384 -0.004872377 -0.021225361 -0.020448431
0001e0 7a 64 95 3d 14 c3 e4 bd ad c0 bd bd 2a df 1f bd
       0.07294555 -0.11170021 -0.092652656 -0.039031185
0001f0 b2 65 84 3c 90 e2 44 3d fd 8d 01 be c9 05 e6 3c
       0.016161773 0.04806763 -0.1265182 0.02807893
000200 fb c8 49 bd 0b 21 13 bd dc c3 38 3c ae 8a fb bc
       -0.049263936 -0.035920184 0.011277165 -0.030705776
000210 4e a8 3f 3d f1 d8 05 bc 3b f8 13 3c af 4b ad 3d
       0.046791367 -0.008169399 0.009031351 0.08461701
000220 13 4a f9 3c 5e a1 88 bd f4 56 f4 3c 3c 52 2f bd
       0.03043083 -0.06671403 0.029826619 -0.042803034
000230 8e b4 80 3d 72 18 7a 3d 84 56 c3 3c 10 f5 26 bc
       0.06284438 0.06105847 0.023844965 -0.010190263
000240 4d 44 51 3d fd 18 8c 3c ea 04 86 3d 46 31 f3 3b
       0.051090527 0.01710176 0.06543906 0.0074216453
000250 98 16 90 ba d1 cf ac bc 7f 7b 0c bc 07 f1 25 bc
       -0.0010993062 -0.021095188 -0.008574366 -0.010128266
000260 3b 28 ee 3c f1 09 1f be a9 2c 02 be 15 76 bc bc
       0.029071918 -0.15531136 -0.12712349 -0.023005525
000270 ae 76 a9 bc 79 bc a7 3a 5a 48 c6 bd 1a b9 d9 3c
       -0.020686474 0.0012797258 -0.09681769 0.026577521
000280 08 d5 a9 3d 34 02 61 3d a5 95 c9 3c 57 cc 95 3b
       0.082925856 0.05493374 0.024607489 0.0045714783
000290 59 05 91 bd 98 9c 05 3d b7 c9 09 3d b0 fa c6 bd
       -0.07081098 0.032620043 0.033639636 -0.097157836
0002a0 2b 93 3b 3d 78 28 21 3d 62 f2 29 bd be 78 b2 3d
       0.045794647 0.039345235 -0.04149092 0.08714436
0002b0 96 52 bb bc 0d da af bd dd e8 e0 39 82 63 06 bc
       -0.022866528 -0.08586512 0.00042898106 -0.008202435
0002c0 c9 3a de 3c f9 96 88 3d ca b6 9a bc 1f 96 29 bd
       0.02712764 0.06669421 -0.018885989 -0.041402932
0002d0 75 bf e7 bc c4 77 4e 3d d7 cf 27 bd 42 39 0c 3d
       -0.028289536 0.050407186 -0.040969696 0.034234293
0002e0 58 54 30 bd 70 cf 17 3e 11 3a f3 3d eb d3 ab 3d
       -0.043049186 0.14825225 0.1187631 0.083900295
0002f0 24 19 20 3d 8a ee 32 bd de 34 3c 3e 0b d4 92 bd
       0.039086476 -0.04368452 0.18379542 -0.0716935
000300 34 ff ad 3d 14 a3 06 38 9d 34 d7 3a 55 44 ee b9
       0.08495942 3.2099968e-05 0.0016418878 -0.0004544581
000310 22 43 56 3c 05 70 1d bc 99 37 b6 bc f0 9e bb bd
       0.013077529 -0.009609227 -0.022243308 -0.09161174
000320 16 03 0a bd 77 ef b0 3d 7b ca 44 bb 06 e5 99 3d
       -0.03369435 0.08639424 -0.0030027914 0.07514386
000330 5e 1e 03 bc fc c5 db bc e1 3a f9 bb 6b e7 40 3c
       -0.008002846 -0.026827805 -0.007605896 0.011773924
000340 12 11 26 bd 16 1d 81 3d 28 ea e5 bb 17 2f 35 bc
       -0.040543623 0.06304376 -0.007016439 -0.01105859
000350 b0 1f 1d 3d 91 de ac 3d b9 7e 4b bc e2 25 18 3c
       0.038360298 0.08440889 -0.01242035 0.009286376
000360 d1 af 9f bd 78 48 0b 3e 63 6d a5 3d 4b e1 b1 3d
       -0.07797206 0.13601863 0.080775045 0.08685549
000370 b8 fe d0 bb 7a 2a a7 3a 9f eb f9 3d b1 e6 84 bd
       -0.006378021 0.0012753748 0.12203144 -0.064893134
000380 37 34 e5 3c d9 fb 33 bc c7 1e 12 bd 16 d6 9e 3c
       0.027979 -0.010985338 -0.035673883 0.019389194
000390 96 81 f6 bc f0 f9 4e 3c 7e e1 19 3d 9e 82 fa bd
       -0.030091088 0.012632832 0.03756856 -0.122319445
0003a0 a1 6f 1a bb 80 b9 01 3d 87 af 1e bd c1 38 8d 3d
       -0.0023565071 0.031671047 -0.038741615 0.068955906
0003b0 d9 e7 f3 3b fd cc a3 bd 31 b3 a1 bb d2 78 0b bd
       0.00744341 -0.07998083 -0.0049346914 -0.03405077
0003c0 c7 a7 d1 3a 1b 98 13 3d 12 3a 95 bd 9a eb 82 bd
       0.0015995436 0.03603373 -0.07286467 -0.06392594
0003d0 f7 65 08 bd e3 57 ea 3c b6 c3 39 bd 06 70 c5 3b
       -0.033300366 0.02860636 -0.04535266 0.006025317
0003e0 76 08 13 bd 47 a6 28 3e 45 c2 99 3d 40 ef 34 3d
       -0.03589674 0.1646968 0.07507757 0.04417348
0003f0 6f 2b 70 3c d9 81 86 bd 76 57 34 3e 3f f3 5d bc
       0.014658793 -0.06567735 0.17611489 -0.013546764

hidden_layers.0.bias f4 [32]
000000 be 52 59 bc ee 27 10 3c 47 1f 21 bc 41 ec 19 bd
       -0.013264356 0.0087985825 -0.009834117 -0.037578825
000010 ef d7 02 3c 76 8b 3c 3d 3a 5b 15 3d 88 44 b8 bc
       0.007986053 0.046031438 0.036463954 -0.022493616
000020 1e 13 3d bc ce 85 e4 bc 85 c1 02 bd 1c 02 97 bc
       -0.011540202 -0.027895834 -0.031922836 -0.018433623
000030 56 a4 2b bd 2f bd b6 bc 22 1b 3f bc b9 e8 3e 3c
       -0.04190477 -0.022307007 -0.011664184 0.011652165
000040 20 a4 a5 bb b6 ef 4e 3d 45 38 8b bc 62 3f be 3b
       -0.0050549656 0.050521575 -0.016994605 0.0058058957
000050 b1 9f 31 3c 30 d0 de 3b 46 1d 80 3c 54 76 ec bc
       0.010841296 0.00679972 0.015638959 -0.028865017
000060 ce 54 4d bd a4 4f 23 bd 0a e0 40 3b f6 ee 34 3d
       -0.050129704 -0.039870873 0.0029430413 0.044173203
000070 c8 c8 18 bd 33 59 00 3d 7f 1c 67 bc d9 0f 0c bd
       -0.037300855 0.031335067 -0.014105915 -0.0341948

hidden_layers.1.weight f4 [32, 32]
000000 70 64 e9 ba e6 8f d7 bc 78 13 71 3c 2f 9e 8b bc
       -0.0017806422 -0.026313733 0.014714114 -0.017043201
000010 11 f1 12 bd 9a cc ba 3d 79 55 ae 3d e9 29 7d 3d
       -0.03587443 0.09121056 0.08512396 0.061807547
000020 8c ef 52 3a e5 c1 d0 3c 9f 0f 39 3a 78 f8 f6 3c
       0.00080465595 0.025483081 0.00070595177 0.030147776
000030 90 d6 44 3c 3b 84 7b 3d 60 0e 0c 3d 84 6c 34 3d
       0.012014046 0.0614054 0.034193397 0.0440488
000040 d3 c8 c6 bc c5 bf ff 3c 3c 8a c1 bc 3b 74 f4 3c
       -0.024265682 0.031219373 -0.023625486 0.02984058
000050 ed 36 8f 3c 79 a1 d5 bc 57 a1 2f 3d ed b4 c6 bc
       0.017482245 -0.026077973 0.042878475 -0.024256194
000060 9b 72 36 bc 4f d0 91 bb 59 80 b0 3d b0 c5 17 3d
       -0.0111357225 -0.004449881 0.086182304 0.037053764
000070 d2 84 92 bc 4f fa 97 3c 23 08 34 bd 69 49 84 3c
       -0.0178856 0.018551974 -0.043953072 0.016148286
000080 37 7a 99 bd c3 2b 4c bd 7a 88 23 bd 01 07 25 ba
       -0.07494014 -0.049846422 -0.039925076 -0.0006295294
000090 74 98 45 bd c1 95 a0 3d ac e0 22 3d eb 4d 68 3d
       -0.048241094 0.07841063 0.039765045 0.056714933
0000a0 b1 68 95 bc e6 c0 30 bd 15 b5 a4 bc 76 6e 11 bd
       -0.018238397 -0.043152712 -0.020105878 -0.035505734
0000b0 9a a0 6b bd 7f d6 fb 3d fa c3 04 3e 8d c1 0f bc
       -0.05752621 0.12296771 0.12965384 -0.008774173
0000c0 f6 62 8a bb 4e c7 26 3d 93 1f d5 3b 29 6b f7 3d
       -0.004223223 0.040717416 0.006504008 0.12080986
0000d0 60 66 11 bd 5a 76 72 bd 95 6f bb 3d 25 57 68 bb
       -0.035498023 -0.0591949 0.09152142 -0.0035452333
0000e0 aa ac 40 3b 8d 78 c7 b9 e0 ec de 3d 9d 8d 92 3d
       0.002939979 -0.00038046055 0.10885024 0.07155917
0000f0 61 68 cc 3c 32 5e a2 3d bb ad 09 bd 8e aa af bc
       0.024952115 0.079281226 -0.033612948 -0.021443632
000100 b7 bd 99 bd e9 c8 af bd 03 81 20 bd 62 4f 86 bc
       -0.07506888 -0.085832424 -0.039185535 -0.016395275
000110 0a cf 33 3c 3b 45 bb 3d b0 b5 d9 3d eb e8 72 3d
       0.010974655 0.09144064 0.10630357 0.05930416
000120 64 bb fe bc 43 c0 2d bd cf f0 2a bd 8b db 5d bd
       -0.031095214 -0.042419683 -0.04173356 -0.05416445
000130 7b 2b 3f bd 6d fb e2 3d c9 80 d2 3d 23 41 8b bc
       -0.046672326 0.11083112 0.1027847 -0.016998833
000140 29 03 0f bd 51 92 ab 3c 10 db 9b bc 98 a2 1d 3e
       -0.034915123 0.020943793 -0.019025356 0.15394056
000150 a6 28 56 bc b5 7e 1a bd 7d 4b b0 3d 64 69 70 bc
       -0.013071215 -0.037718493 0.08608148 -0.014673565
000160 5f b1 7b b8 57 ac 1a bc 17 f4 d4 3d 18 78 04 3e
       -6.0008253e-05 -0.009440503 0.10398119 0.12936437
000170 0a 5e 8f 3c 7d be af 3d c5 90 b1 bd af e6 b7 bd
       0.017500896 0.08581255 -0.08670191 -0.08979546
000180 54 6c e9 bd ca 98 96 bd 67 e7 dd bc 87 e1 b1 bc
       -0.11397615 -0.07353361 -0.02708788 -0.021713985
000190 3f 0e ea bc f4 3c 0b 3e 88 24 80 3d 84 70 e5 3d
       -0.028571246 0.1359747 0.06256968 0.11203101
0001a0 bd 75 36 3c 29 bd 60 bd 54 fa 9b bd 67 4c 96 bd
       0.011136469 -0.054867897 -0.07616106 -0.07338791
0001b0 c9 a9 0b bd 4f cf e0 3d cd a7 c5 3d e6 7a 5e 3d
       -0.034097467 0.10977041 0.09651146 0.054316424
0001c0 28 2c 08 3c 1e 6e 8f 3d 0a 3c 10 bd e6 ff d9 3d
       0.008311309 0.07003425 -0.035213508 0.10644512
0001d0 4c c2 94 bd c0 85 fd bc 89 be 88 3c c1 1d 8e bd
       -0.07263622 -0.030947566 0.016692417 -0.06939269
0001e0 08 80 c8 bc 4e ea e2 39 40 eb d3 3d 59 fb c6 3d
       -0.024475113 0.0004328065 0.10347605 0.097159095
0001f0 6f 1e ce bb 3e 74 f0 3d ae 95 95 bd 28 8c a6 bd
       -0.006290249 0.117409214 -0.0730394 -0.081322014
000200 26 b0 ff 3c 15 bb 0a bd b3 28 e9 3c be ad c0 bc
       0.031211924 -0.03386982 0.02846179 -0.023520347
000210 71 ba 33 bb a3 b9 44 3d 45 d2 1b 3d 05 14 40 3d
       -0.002742436 0.0480286 0.038042326 0.046894092
000220 cf 22 12 3c 85 8c fd 3c 63 16 49 3d 76 1c 86 3c
       0.008919432 0.030950794 0.049093615 0.016370993
000230 41 5a fe 3c 5e 3e 0b 3e 50 df cc 3d 40 ef b2 3d
       0.031048896 0.1359801 0.10003531 0.087370396
000240 ae 99 2a 3d 9e 18 e7 3c 59 24 b9 bb 8a 63 ab 3d
       0.041650467 0.02820998 -0.005650085 0.08368595
000250 96 c6 8c 3c a3 9e 3b 3d 23 a8 90 3d 92 55 9a bb
       0.017184537 0.045805585 0.070633195 -0.004709908
000260 70 6e 59 3d 21 42 1d bc de 27 e9 3d c0 c4 af 3d
       0.053083837 -0.009598286 0.11384557 0.08582449
000270 07 ef 2a 3d 50 be e1 3d 1b 69 30 bc d7 62 85 bc
       0.04173186 0.11022627 -0.010767247 -0.016282482
000280 96 de d5 bd bf a8 9e bd e7 69 d0 bc c4 92 58 bd
       -0.104428455 -0.077470295 -0.025441123 -0.05287434
000290 b7 9d d4 bc 87 29 66 3d 13 c2 5e 3d 60 5a 9e 3d
       -0.02595411 0.056191947 0.054384302 0.077320814
0002a0 63 3d 01 3c f3 95 b7 bd 97 43 31 bb 37 61 b6 bd
       0.007888171 -0.089641474 -0.0027048343 -0.08905261
0002b0 f4 13 18 bd 86 15 fd 3d a7 ad dd 3d cc 18 23 bb
       -0.037128404 0.12357621 0.10824137 -0.0024886606
0002c0 97 d6 9a bc ee 9f ef 3c bf d0 f9 bc fa 74 93 3d
       -0.018901153 0.029251065 -0.030495046 0.07200046
0002d0 41 da a6 bd a7 5c d7 bc d8 f3 89 3d 3b 17 a7 bc
       -0.081470974 -0.026289297 0.06735963 -0.02039682
0002e0 4b 59 03 bb 76 41 3d bd 27 cb c0 3d bb 76 d1 3d
       -0.0020042236 -0.046205007 0.09413748 0.10227724
0002f0 70 79 fa bc d3 e3 cb 3d e5 09 c6 bd e7 1d 4e bd
       -0.030575484 0.099555634 -0.09669856 -0.050321486
000300 1e 67 46 bd c2 0a d9 bc e3 6d 6a bd 3a 9e 2d bd
       -0.048438184 -0.026494388 -0.057233702 -0.042387225
000310 fc 54 74 bd a4 a6 07 3e 26 e0 b7 3d 85 65 ce 3d
       -0.05965136 0.13247162 0.089783 0.10077957
000320 08 b8 33 3c a0 44 6b bd 7a d1 8b bc a1 fc 9f bc
       0.010969169 -0.057438493 -0.01706766 -0.019529643
000330 e3 4b 21 bd 91 c6 b4 3d 8f a5 b5 3d cd f1 1a bc
       -0.03937901 0.08826936 0.088694684 -0.009457064
000340 df 8a 32 bd 62 04 68 3d 49 8d 2a bc dd ee 88 3d
       -0.04358947 0.056644805 -0.010409662 0.066861846
000350 8c 7a ab bc 78 3e 80 3c 7a 14 84 3c 53 a2 17 bd
       -0.020932458 0.015654787 0.016123045 -0.03702004
000360 3c 45 69 3c 23 79 4f bd 78 5e 9c 3d e4 af c9 3d
       0.014237698 -0.050652634 0.07635206 0.098480016
000370 de 81 41 3b dc fd f8 3d 4b 19 fe ba 22 46 9c bd
       0.002952687 0.12157795 -0.00193862 -0.07630564
000380 8d 28 8c bd d1 d3 cf bc 2d 20 4e bd a1 b9 5a bd
       -0.06843672 -0.025369557 -0.050323654 -0.053399686
000390 7c 4a 74 bd 2d 89 f0 3d c9 d7 c0 3d f4 17 8b 3d
       -0.059641346 0.11744914 0.09416158 0.06791678
0003a0 59 a9 2c bd 3a 45 07 bd 1c b8 24 bc 84 be a3 bd
       -0.04215369 -0.033025004 -0.010053661 -0.07995322
0003b0 e2 43 a5 bc 97 d9 20 3e 78 33 e2 3d 1d ed a8 bc
       -0.02017397 0.15708004 0.11044973 -0.020620877
0003c0 f7 19 0f bd be 17 15 3d 77 de 7f bc ea 0e b7 3d
       -0.03493687 0.036399595 -0.015617005 0.089383915
0003d0 d6 28 7a bd 8d ff ad bc f2 21 ac 3d 4a 92 81 bd
       -0.0610741 -0.02124002 0.08404912 -0.063267305
0003e0 91 0a 21 bd 0f b1 d3 bc 5a e8 7c 3d fd f8 c0 3d
       -0.039316718 -0.025841264 0.061745025 0.09422491
0003f0 06 94 d6 3c e8 9c c8 3d 3c ad b1 bd cd e4 16 bd
       0.02619363 0.097955525 -0.0867562 -0.036839295

hidden_layers.1.bias f4 [32]
000000 96 03 58 3d 40 9a cb 3d 85 3e da 3d 3f dd e1 3d
       0.052737795 0.0994153 0.10656456 0.110285275
000010 81 0d 96 3d 06 18 c1 3d de a6 83 3d 46 c9 a7 3d
       0.073267944 0.0942841 0.06428312 0.08192687
000020 a7 ee 16 3e 3a 34 01 3e 93 7c 81 3d c0 d5 e7 3d
       0.14739476 0.12617579 0.06322589 0.113200665
000030 70 a6 a6 3d 0f aa 12 3d 5c 97 8a 3d 14 d2 a9 3d
       0.08137214 0.03580671 0.06767151 0.08292022
000040 4f f4 b2 3d e4 1c e7 3d 01 c0 b1 3d 80 69 3b 3e
       0.087380044 0.11284807 0.086792 0.18301964
000050 de 90 11 3e 23 02 e1 3d bf d0 c1 3c 8b 5b eb 3d
       0.14215419 0.10986736 0.023659108 0.1149207
000060 97 ff d4 3c 0d 6c c7 3c 66 ea cf 3d 22 f1 b4 3d
       0.026000781 0.024343515 0.1015213 0.08835055
000070 b6 bc 09 3e 46 1a 4c 3d 25 b2 a2 3d 22 9c 14 3d
       0.13450894 0.049829744 0.079441346 0.036281712

regression_layers.1.weight f4 [16, 32]
000000 90 b1 98 3d f9 b6 8d 3d 6b 71 fd 3d b4 d2 a5 3d
       0.07455742 0.06919665 0.123751484 0.08096829
000010 37 53 ac 3c 87 c6 0e 3e f2 08 d1 3d 5a 59 b6 3d
       0.021035774 0.1394292 0.10206784 0.08903761
000020 66 e1 ee 3d d5 07 38 3d a9 34 94 3c ce 8e 42 3e
       0.11664085 0.044929344 0.018091517 0.18999788
000030 75 07 26 3d f1 5a 14 3e b4 40 98 3d 15 35 1a 3e
       0.040534455 0.14487816 0.07434216 0.15059312
000040 1c 1c da 3d 32 6b c6 3d 3f bf ad 3d 68 18 24 3c
       0.10649893 0.09688415 0.08483743 0.0100155845
000050 9d f5 8f 3d 63 81 fb 3d 89 67 a1 3d 02 be d8 3d
       0.07029269 0.12280538 0.07881076 0.10583116
000060 32 79 e1 3d ba 72 a3 3d 1a 23 20 3e 89 1a ba 3d
       0.11009444 0.07980867 0.1563839 0.090870924
000070 89 38 72 3d b3 c4 23 3e d0 98 a2 3d f0 31 0e 3e
       0.059135947 0.15993004 0.07939303 0.13886237
000080 e0 1d 39 3c a3 76 a2 bc 8c 54 37 3c 70 a5 aa bc
       0.011298627 -0.019831961 0.011189591 -0.02083084
000090 46 c5 d9 3b fa 9a ad bc 6b 11 f1 bc 14 e5 a0 bc
       0.0066458313 -0.021192063 -0.02942725 -0.019640483
0000a0 4d aa dc bc 49 44 cb bc 39 df 9a bb e1 31 58 bb
       -0.026936674 -0.024812834 -0.0047263172 -0.0032988715
0000b0 fa a7 4d bb 82 4f 0e 3d 04 40 c8 3c d7 24 23 3d
       -0.003138064 0.034743793 0.024444588 0.039830055
0000c0 ce 39 59 bc 66 28 20 bd 27 72 e2 bc 18 00 00 3d
       -0.013258411 -0.039101027 -0.027642323 0.03125009
0000d0 d3 03 ec bc 3a 6c 34 bc 6a fe a2 bc 8f 55 0c 3c
       -0.028810417 -0.011012131 -0.019896705 0.008565321
0000e0 83 2e 8b 3c 3c 29 0d bd 3f a7 00 bc 64 00 8c 3c
       0.016989952 -0.034463152 -0.007852375 0.01709003
0000f0 78 cd 09 3b 50 ce 10 3c c9 88 19 bc 85 ce 0d 3d
       0.002102701 0.008838251 -0.009370991 0.03462078
000100 f6 f4 f1 3b 07 bc 84 bc 5d 14 8a bc 0d 0f 01 bc
       0.007383938 -0.01620294 -0.016855413 -0.007877124
000110 c2 12 c5 ba 70 c1 1a bd 80 c8 27 bc 00 16 2d bd
       -0.0015035497 -0.037782133 -0.010240674 -0.04225731
000120 e9 95 86 3b 5b d7 0c bb 49 01 5a bc 1a b5 0a bd
       0.004107226 -0.0021490667 -0.0133059705 -0.03386412
000130 e0 bb 8d bc c2 f4 da 3b ea 99 b8 3b 76 93 84 3c
       -0.0173015 0.0066820094 0.0056335824 0.016183596
000140 21 9b c5 bb ac ca b8 bc 51 78 28 bc d7 0e 06 bd
       -0.0060304557 -0.022557579 -0.010282592 -0.032728996
000150 f2 9d bf bc d2 53 03 bc 20 6c bf bc b4 ee 29 bd
       -0.023390744 -0.00801559 -0.023366988 -0.04148741
000160 e5 49 c4 bc ca 7a fd bb 8e e8 3b bd 5e 5a 17 bd
       -0.023961017 -0.007735585 -0.04587608 -0.036951415
000170 6d 22 69 bd 9e b6 dd 3b 19 b4 6b bd 66 17 31 bc
       -0.056917597 0.0067661544 -0.0575448 -0.010808801
000180 2d 67 24 3d 5e 9b c6 3d 6f 61 96 3d ce fd 4f 3d
       0.04013746 0.09697603 0.07342803 0.050779156
000190 3e d6 82 3c 7c 94 fd 3d d8 51 d3 3d f4 f9 92 3d
       0.0159713 0.12381837 0.10318345 0.07176581
0001a0 43 1a 7f 3d eb 33 b0 ba a2 af 91 bc 2f c7 1c 3e
       0.062280905 -0.0013443207 -0.017783944 0.15310358
0001b0 a0 ef c2 3c 51 5c c3 3d 09 69 90 3d a2 c9 fe 3d
       0.023795903 0.09539092 0.07051284 0.12440802
0001c0 54 d5 82 3d 14 48 62 3d e7 2f 5a 3d c8 2d 5f 3d
       0.06388345 0.05524452 0.05326834 0.05448702
0001d0 87 4d 79 3d b8 c3 95 3d e7 cf ef 3c 98 4e 88 3d
       0.06086495 0.07312721 0.02927394 0.066556156
0001e0 4b 27 90 3d b8 63 c3 3d 94 f8 10 3e f5 28 1a 3d
       0.070387445 0.09540504 0.14157325 0.037636716
0001f0 fa 95 61 3d c9 5c ee 3d aa b2 e2 3d 9d 7e eb 3d
       0.05507467 0.11638791 0.11069234 0.11498759
000200 44 be 1f 3d a9 ed 25 3e 61 9a 36 3e f1 c9 62 3e
       0.03899981 0.16203941 0.17832328 0.22147347
000210 4c 27 aa 3d 7b 13 2b 3e a9 19 f4 3d d4 7f 52 3e
       0.083082765 0.1670665 0.11918957 0.20556575
000220 0c b2 60 3e c2 6e 3a 3d 90 de 57 3d 85 83 92 3e
       0.2194292 0.045515783 0.052702487 0.28615966
000230 25 a1 f1 3d 3b 7f 63 3e 68 43 ba 3d 9f 74 5b 3e
       0.11798314 0.22216503 0.09094888 0.21431206
000240 dd e3 d2 3d a2 03 24 3e 11 18 36 3e a4 d3 93 3d
       0.10297368 0.16017011 0.17782618 0.072181016
000250 64 24 0e 3e 21 50 27 3e 6e a4 14 3e fc a9 3e 3e
       0.1388107 0.1633916 0.1451585 0.18619531
000260 fd 60 52 3e 6f 38 41 3e ce 2c 73 3e 3e 87 f0 3d
       0.2054481 0.18869184 0.2374756 0.117445454
000270 26 a4 8f 3d 32 fc 8d 3e e1 d6 40 3e 96 4d 14 3e
       0.07013731 0.27731472 0.1883197 0.14482722
000280 53 48 c7 3c 92 de 40 bc a2 f6 a5 bc 54 ee 09 bd
       0.024326479 -0.011771815 -0.020259205 -0.033674553
000290 90 60 30 bb ab 27 fe 3b 7e 30 75 3c 3f 41 4a bb
       -0.0026913024 0.0077561936 0.014965175 -0.0030861644
0002a0 ea ec 72 bc c8 bf 98 bc d2 cd 0e bd 4f 54 15 bc
       -0.0148269925 -0.018646136 -0.034864254 -0.009114339
0002b0 ab 0c 3e 3c fc be bd 3c 03 a6 9f bc 5b 16 aa bb
       0.0115997 0.023162358 -0.01948834 -0.0051906533
0002c0 cc f9 dd 3b 79 49 9b bc 88 5a 8f 3c 90 62 26 bd
       0.006774163 -0.018955933 0.017499223 -0.04062134
0002d0 62 d0 8d bc a9 44 e6 3c 9b 3f 45 bb 41 3b 1a bc
       -0.017311279 0.028108912 -0.0030097726 -0.009413541
0002e0 c5 56 1f 3c e9 44 9f 3c c9 ba 09 bd 8d af a9 3c
       0.009725277 0.019442039 -0.033625398 0.020713592
0002f0 a9 5c 19 3d 5b 1a 71 3c 16 01 a3 3c 9e d9 eb bc
       0.037441883 0.014715756 0.019897979 -0.028790291
000300 2a dd 96 bc 1e 6b b2 bc c8 1f 03 bd 8b 34 a3 bd
       -0.018416006 -0.021779593 -0.03201273 -0.07969006
000310 42 80 32 bd 19 79 06 bd 6a b7 c4 bc 06 aa fc bc
       -0.043579347 -0.03283033 -0.02401324 -0.030842792
000320 00 42 b0 bc 3b 71 06 bd da 00 95 bc 23 23 22 bd
       -0.021515846 -0.03282283 -0.018188883 -0.03958429
000330 c1 af 2b bc 3e ce 1d bd e5 d7 33 bd 5a 32 8d bc
       -0.010478915 -0.038526766 -0.043907065 -0.017235924
000340 0d f2 82 bc 01 84 0d bc 0e 6c 6c bd 6d db c3 bc
       -0.01598456 -0.008637429 -0.057720236 -0.023908341
000350 ec 92 43 bb 42 a1 9c bc d5 95 d1 bc ba 07 4d bd
       -0.002984221 -0.019119862 -0.02558414 -0.050056197
000360 d0 8c 8a 3b ed 7e 3b bd e1 e7 6e bd 86 4d 89 bd
       0.004228212 -0.045775343 -0.058326606 -0.067042395
000370 75 46 b9 bc d7 12 d4 bc b2 07 4e bc fa 8f c6 3b
       -0.022616604 -0.02588789 -0.012575077 0.006059644
000380 45 4a 5a bd 1e 83 9f b9 2f c6 e0 bc 23 1e 5e 3c
       -0.053293485 -0.00030424533 -0.027438251 0.01355699
000390 8d 30 27 bc 94 1d 21 bd ae ee 38 bc 35 48 2a bd
       -0.0102044465 -0.03933485 -0.011287374 -0.04157277
0003a0 6a f6 d8 bb 64 cc 39 bd 85 9a 83 3c 73 95 cd 3b
       -0.0066211717 -0.045360938 0.016064892 0.0062739193
0003b0 b0 c8 2f bd fd 39 ac 3c 65 ad 68 3c 53 39 4b bc
       -0.042916 0.021023745 0.014201497 -0.012403804
0003c0 94 00 18 bc 32 9b 15 bd 57 fc 99 bc 31 15 10 3c
       -0.009277482 -0.03652496 -0.018797083 0.008794115
0003d0 b1 69 4b 3b 12 68 af bc 96 8a 54 bd b3 26 99 3c
       0.0031038339 -0.02141193 -0.05188998 0.018695211
0003e0 59 ab a1 bc 52 92 6b bd 7c c0 bd 3b 24 84 60 3b
       -0.019735025 -0.05751259 0.005790768 0.003425845
0003f0 95 6d df bc 18 e6 34 bd 03 ba ef bc 72 3d ab bb
       -0.027273932 -0.044164747 -0.029263502 -0.0052258307

regression_layers.1.bias f4 [16]
000000 ff 46 27 3d b8 d2 20 bd ca 48 a1 bc 9e 5a 8c 3d
       0.04083919 -0.039263457 -0.019688029 0.06853221
000010 90 6f 5a 3d 7d e5 fe 3c ec 6a a6 bd ee 44 f1 bc
       0.05332905 0.031115288 -0.081258625 -0.029451814
000020 9c 9c b7 bc bd c5 cd bc e4 85 f0 3d 3b f1 de 3d
       -0.022413544 -0.025118703 0.117442876 0.10885855
000030 02 d3 9a bb 11 78 83 3c a5 b4 1d bd cd c9 3f 3d
       -0.004724861 0.016048463 -0.038502354 0.04682331

regression_layers.3.weight f4 [1, 16]
000000 ea 12 13 3f dc 9a 2d bd 93 ef 0c bb 6b 19 e2 3e
       0.57450736 -0.042384014 -0.0021505102 0.44160017
000010 e2 2a 72 3f e3 cd 67 bc ba 7c 05 3d 4e fa ef 3b
       0.94596684 -0.014148208 0.03258965 0.00732354
000020 fe 7e 60 bd b6 6e 98 3c 85 03 7b 3f a3 6a 72 3f
       -0.05480861 0.018607479 0.98052245 0.94693965
000030 76 8b 19 bd a2 34 8e bc b0 84 28 3d a3 c5 a8 3e
       -0.037486516 -0.017359082 0.041142166 0.32963285

classification_layers.1.weight f4 [16, 32]
000000 25 d1 0d bc 8d 45 44 bb 02 dd bf 3c 8c 8c 9d 3c
       -0.008655821 -0.0029948682 0.023420814 0.019232057
000010 6b 9a fa bc 34 f4 cc bc f1 0f 00 bd 0b 85 4a 3d
       -0.03059121 -0.025018789 -0.031265203 0.049443286
000020 9a 1b 4f 3d 94 61 09 bd 19 5c 5d bc af 62 34 3d
       0.050563432 -0.033540323 -0.013510727 0.044039425
000030 ea 03 8c 3c e4 61 45 3d 40 82 ba bc b3 a1 ce 3c
       0.01709171 0.04818906 -0.022767186 0.025223589
000040 d9 ff 2f 3d 34 7f 01 3d df d2 5d 3c d2 1a 2b bc
       0.042968605 0.03161545 0.013539045 -0.010443406
000050 f8 e8 98 bc 75 b0 a0 3c 94 53 60 bc 44 b9 ae bb
       -0.018665776 0.019615391 -0.013691802 -0.005332144
000060 b1 11 db 3c f0 b4 ac 3c 51 21 15 bc 03 c2 11 bd
       0.026741834 0.021082371 -0.0091021815 -0.035585415
000070 09 8c 02 3d 9c 54 09 3d 75 32 34 3d bb d7 85 bc
       0.03187183 0.033527955 0.043993432 -0.01633822
000080 c2 25 24 bd 8f 14 15 bd d7 40 03 bc 71 ec 4d bc
       -0.04007507 -0.03639656 -0.0080110645 -0.012568579
000090 c2 41 13 bb 0e 8a c4 3c 72 07 a2 bc a4 2c cf 3c
       -0.0022469615 0.02399161 -0.01977894 0.025289841
0000a0 d5 ba bc 3c ee 23 1c bd d3 12 d8 3a a8 5b 73 bc
       0.023038307 -0.038120203 0.0016485102 -0.0148533955
0000b0 8f 98 47 bc eb a5 eb 39 14 b1 35 bc 04 bb a5 bc
       -0.012182369 0.0004494631 -0.011089582 -0.020230778
0000c0 ac 14 17 3d e3 73 21 bd bf 30 c3 3c c1 4f 16 bd
       0.03688495 -0.03941716 0.023826955 -0.036697153
0000d0 28 eb 0e bd 38 cd d5 bb 11 df 18 bd c9 f7 db bc
       -0.03489223 -0.006524708 -0.037322108 -0.026851552
0000e0 53 e2 b4 bc de 0a 24 3d 9a 2c 27 bd c8 35 03 3d
       -0.022080576 0.040049426 -0.04081402 0.03203371
0000f0 ff e9 27 bd a3 fe 15 3d 1b d0 e3 bc af c6 ee bb
       -0.04099464 0.036619794 -0.027809193 -0.0072868685
000100 f3 5b 28 bb 8e 54 b5 bc a3 33 5f 3b 72 e8 27 bd
       -0.0025689572 -0.022135045 0.0034057877 -0.04099316
000110 d5 88 71 3c 5b 3e 61 3c b3 8f ac bc 8b c4 48 3b
       0.014742096 0.013747777 -0.021064615 0.0030634727
000120 20 0e 3a bc ca f6 21 3c ab 31 27 3b 52 07 fb 3b
       -0.011355907 0.009885499 0.0025511782 0.0076607848
000130 5b 91 4e 3c 14 27 cf bc 77 4a 03 3d e6 3d 11 3d
       0.012607898 -0.025287189 0.032053437 0.03545942
000140 f2 e1 a6 bc 32 f5 47 bb cd a1 18 3d c1 18 8c bc
       -0.020371411 -0.0030511138 0.03726368 -0.017101647
000150 6f 02 e0 bc 9f 1a 0a bd dc 23 1b bd a2 78 27 3c
       -0.02734491 -0.033716794 -0.037875995 0.010221632
000160 31 87 ee 3c 30 0f 76 bc 7f 6d 19 3d 92 e4 e8 bc
       0.029117199 -0.015018269 0.03745794 -0.028429303
000170 66 b5 18 3d 9e e5 1a bc 97 8a 09 bd d0 ef 94 bc
       0.03728237 -0.009454159 -0.033579435 -0.018180758
000180 a8 33 40 3c 14 21 2c 3d b8 00 09 3d 1c bb d4 3c
       0.011731066 0.042023733 0.03344795 0.025968127
000190 5d b4 38 3d 98 a2 27 3d 92 ce 88 3d 70 1b c3 3b
       0.045093883 0.040926546 0.06680025 0.0059541985
0001a0 f4 c1 aa 3c 04 15 5c 3b ce 18 ed 3c 59 ac 03 3d
       0.020844437 0.0033581862 0.028942492 0.032146785
0001b0 27 83 8a 3d 3f 75 ef 3c 45 41 e6 3b 50 e1 0b 3d
       0.067632966 0.029230712 0.0070268237 0.03415042
0001c0 08 db ee 3c ce 30 8b 3c be 83 ae 3b b6 98 8c 3d
       0.029157177 0.016991045 0.0053257635 0.06865065
0001d0 f9 28 3f 3d 34 4e ab bb 1f 3a 59 3d 3e e7 53 3b
       0.046669934 -0.0052278284 0.053033944 0.0032333876
0001e0 f1 53 76 3d 4f 03 31 bb bf ee 5b 3d 47 a6 5e 3d
       0.060138647 -0.0027010029 0.053694483 0.054357793
0001f0 d6 bb a2 3c e7 6e 25 3d f1 60 75 3d a8 9f a4 3c
       0.019864958 0.040388968 0.059906904 0.020095661
000200 90 9f af bc 7b 83 4d bc 6b 8e 1e 3c ed 26 96 bc
       -0.02143839 -0.012543554 0.00967751 -0.018329108
000210 3a 61 99 3b e4 fb 09 bd 03 2c a6 3c ff 55 bc bc
       0.0046807798 -0.033687487 0.020284658 -0.022990225
000220 f4 e7 72 3b dd 81 a7 bc f7 70 a8 3c 08 7b 38 3c
       0.0037064524 -0.020447666 0.020561678 0.011259802
000230 c2 6f 50 3c ae fd a7 ba 96 e5 44 3c 99 38 a9 3c
       0.012721958 -0.0012816691 0.012017628 0.02065687
000240 02 8d e5 bc 7f d5 94 bc 0f dc 7e 3c b9 4d 29 bc
       -0.02802134 -0.01816821 0.015555396 -0.010333472
000250 6b d6 c1 3a 6c 55 f2 3b 12 5f 21 bc f6 e0 25 3c
       0.0014788633 0.007395437 -0.009849327 0.010124436
000260 e7 89 6f 3c e6 17 9b bc 3d f3 67 3c 01 9e da bc
       0.014620281 -0.018932294 0.014157114 -0.02668667
000270 df b7 d1 3b 4a 68 ff bc 28 03 69 3c ac 65 da 3c
       0.006400093 -0.031177659 0.014221944 0.026659809
000280 0c a7 a5 3e 5e 7a 9d 3e 7c 1d b6 3e 84 c8 a0 3e
       0.3235401 0.3075742 0.3556937 0.3140298
000290 e9 71 c2 3e f8 1f 8e 3e 45 ab 8f 3e 35 53 a3 3e
       0.37977532 0.27758765 0.28060356 0.3189942
0002a0 d3 ab d1 3e 20 aa e5 3e b4 7c a2 3e 7c 12 a8 3e
       0.40951404 0.44856358 0.31735766 0.32826602
0002b0 25 86 cc 3e 94 85 8c 3e bc cc d1 3e f0 17 90 3e
       0.39946094 0.27445662 0.40976512 0.28143263
0002c0 c7 0e c7 3e 18 25 ba 3e b8 fe a4 3e ed c9 0b 3f
       0.38878462 0.36356425 0.32225585 0.5460499
0002d0 f2 07 df 3e f7 8b 9b 3e 5e 31 82 3e a4 c2 ac 3e
       0.4356075 0.30380222 0.2542829 0.3374225
0002e0 bd 1a 7d 3e 3d bd 8c 3e 59 2f 8f 3e 0b 52 9b 3e
       0.24717231 0.27488127 0.2796581 0.3033603
0002f0 c5 4a d9 3e a6 ce 63 3e 7f a6 aa 3e e9 9e 8c 3e
       0.42439857 0.22246799 0.3333015 0.2746499
000300 16 d7 22 3e f1 02 58 3e 12 59 40 3e 5c bf 2d 3e
       0.15902361 0.21094872 0.18783978 0.16967529
000310 31 d2 50 3e 7d b7 29 3e 73 d1 2b 3e 81 75 1a 3e
       0.20392682 0.16573901 0.16779117 0.15083887
000320 c9 a1 69 3e 55 85 7e 3e b0 2a 32 3e 74 3f 7a 3e
       0.22815622 0.2485555 0.17399096 0.24438268
000330 3a 2c 27 3e 9e a7 34 3e b0 de 7b 3e e8 60 0f 3e
       0.16325465 0.17642066 0.24596667 0.1400181
000340 4c 67 28 3e d5 eb 1f 3e c9 07 62 3e 3a 1d 89 3e
       0.16445655 0.15617307 0.22073282 0.2678011
000350 bf ae 74 3e 13 73 53 3e f0 58 2a 3e 29 bc 18 3e
       0.23894785 0.20649366 0.1663549 0.14915527
000360 b1 38 32 3e 53 53 50 3e 97 c9 45 3e e8 85 0d 3e
       0.17404439 0.20344286 0.19315182 0.13820612
000370 ca 14 47 3e f2 95 17 3e ba 9a 5c 3e 43 41 16 3e
       0.19441524 0.14803293 0.21543398 0.14673333
000380 35 99 5c 3e be 83 80 3e 1d 21 85 3e d8 b4 95 3e
       0.21542819 0.2510051 0.26001826 0.29239535
000390 d4 06 a3 3e a8 2f 5f 3e 7a 3d 85 3e 1f 09 8e 3e
       0.31841147 0.21795523 0.26023465 0.27741334
0003a0 49 99 b1 3e e1 de a7 3e 48 12 97 3e 08 7f 8a 3e
       0.3468726 0.3278723 0.29506135 0.27050042
0003b0 01 82 a5 3e 77 eb 83 3e 0a 22 b3 3e 6d 19 75 3e
       0.32325748 0.25765583 0.34986907 0.2393548
0003c0 27 3e 9a 3e 7f e8 96 3e d4 8a 97 3e d0 07 e1 3e
       0.30125543 0.29474255 0.29598105 0.43951273
0003d0 9e bf a5 3e a9 a9 5a 3e 51 5b 82 3e bb b7 92 3e
       0.32372755 0.21353783 0.25460294 0.286558
0003e0 3a c7 5d 3e c2 38 64 3e bb 0e 69 3e f0 79 88 3e
       0.2165803 0.22287276 0.22759525 0.2665553
0003f0 18 f4 b7 3e 78 12 44 3e bd e2 91 3e c1 6e 3b 3e
       0.35928416 0.1914767 0.284933 0.18303968

classification_layers.1.bias f4 [16]
000000 36 5f fd 3a a5 25 16 bd c6 21 5c bb 3c ab 04 3d
       0.0019330743 -0.036656994 -0.0033589466 0.032389864
000010 63 7b 5c 3c a8 a7 36 3f 61 23 b7 3e 3a 1f 14 3f
       0.013457152 0.71349573 0.3576918 0.5786015
000020 05 05 1f bc 7e 2f e3 bc e7 bc 07 bc 92 27 85 3e
       -0.009705787 -0.027732607 -0.008284784 0.26006752
000030 65 8c 83 bb 17 bc d7 3b b7 f2 46 bc 9e d3 e4 3e
       -0.004014539 0.0065837014 -0.012142829 0.446927
